models/total_bases/mlp_model_0.pt (torch, 949556 bytes, 13 tensors)

model.0.linear.weight f4 [128, 855]
0	0x3ccc9bc6	0.024976622
1	0x3d17def4	0.03707786
2	0xbbc0f431	-0.005888485
3	0x3bd07490	0.0063615516
4	0xbcb6452d	-0.022249782
5	0x3ab9738a	0.0014148813
6	0xbd11c3e6	-0.035587214
7	0x3bd4d853	0.0064955144
8	0x3ca12e9e	0.01967555
9	0xbd0c9eaf	-0.03433102
10	0x3cab3b00	0.020902157
11	0x3d26ffab	0.040771168
12	0x3dac554f	0.08414709
13	0x3dc1fc0d	0.09471903
14	0x3d18d011	0.037307803
15	0x3c48f1bd	0.012264666
16	0x3d526e7c	0.051374897
17	0x3b6a7a2a	0.0035778382
18	0x3bd111b0	0.0063802823
19	0x3d022686	0.03177502
20	0xbd77efa0	-0.06053126
21	0x3d364f03	0.044508945
22	0x3d9375a8	0.072001755
23	0xbc3e91db	-0.011631454
24	0xbd5ff13c	-0.05467342
25	0xba671cec	-0.00088162604
26	0xbd3d0cde	-0.04615485
27	0xbd622ebd	-0.055220354
28	0xbcfd3d12	-0.03091291
29	0xbb41e98a	-0.0029588663
30	0x3d4f7d7f	0.05065679
31	0xbce0260d	-0.027361894
32	0x3cc85456	0.024454277
33	0x3c24abbc	0.01005071
34	0xbcbd1478	-0.02308105
35	0x3be56886	0.0070009856
36	0x3c90cbc6	0.017675292
37	0x3d293124	0.04130663
38	0xb9be6582	-0.00036315253
39	0x3bc5156f	0.006014518
40	0x3ab28bb5	0.0013621958
41	0x3d27164d	0.040792752
42	0x3c3e346b	0.011609177
43	0xbc72ee98	-0.014827393
44	0x3c9a516d	0.018837655
45	0xb9e82ad6	-0.00044282404
46	0x3d2e7ad6	0.042597614
47	0x3cb7829e	0.02240115
48	0x3d086284	0.033297077
49	0xbcb7c7d7	-0.022434158
50	0xbd0311c0	-0.03199935
51	0x3d0a1cf2	0.03371901
52	0x3d52b68d	0.051443625
53	0x3cd230b4	0.02565799
54	0xbc070dc5	-0.008243029
55	0x3c6f0cdf	0.014590471
56	0x3d11c2e2	0.035586245
57	0xbd1b8aff	-0.037974354
58	0x3cba5088	0.022743478
59	0x3ae6877c	0.0017587985
60	0xbcfcec12	-0.030874286
61	0xbd548af5	-0.051890332
62	0x3c3a8a59	0.011385524
63	0xbc88f2b7	-0.016717298
64	0xbc110d18	-0.008853219
65	0x3d1ec65e	0.038763396
66	0x3bdb6a9d	0.006696059
67	0xbc9bbe28	-0.019011572
68	0xbd7b8dc4	-0.061414495
69	0xbd9b16a9	-0.075726815
70	0x3cf8cda7	0.0303715
71	0x3ca19d2f	0.019728271
72	0x3cc1673a	0.023608793
73	0xbce6793f	-0.028133987
74	0xbc8fe7a9	-0.017566519
75	0xbc27d8a5	-0.010244523
76	0x3c4ed412	0.012623804
77	0xbccd28d6	-0.025043886
78	0xbd091635	-0.033468444
79	0x3c28387b	0.010267372
80	0xbd2d5b54	-0.042323425
81	0xbc07135d	-0.008244363
82	0x3c8d5415	0.017252007
83	0xbd110bf1	-0.03541178
84	0x3d39a354	0.045321777
85	0xbcdb0bd3	-0.026739037
86	0x3a89d712	0.0010516366
87	0x3d0d8cb4	0.034558013
88	0xbc8ac57d	-0.016939873
89	0x3d0d30b2	0.034470268
90	0x3b92b9c5	0.004477712
91	0xbbd7f762	-0.0065907696
92	0x3d08a2f2	0.03335852
93	0x3c8a90ed	0.01691481
94	0xbd68aea0	-0.05680716
95	0x3cd7b518	0.02633147
96	0x3ce7a3d1	0.028276356
97	0xbccc20ef	-0.024918048
98	0xbc7764e3	-0.015099737
99	0xbc2a0c08	-0.010378845
100	0xbd9b31f4	-0.07577887
101	0x3ce8b349	0.028405802
102	0xbbc5f6d7	-0.0060413885
103	0xbd600094	-0.05468805
104	0xbd56945f	-0.05238759
105	0xbcf5b131	-0.029991718
106	0x3da77f1e	0.081785426
107	0x3d25d785	0.04048874
108	0xbc18f7f2	-0.0093364585
109	0x3cb90bc6	0.022588622
110	0x3d083fac	0.033263847
111	0x3d21fb20	0.039546132
112	0x3d0a5959	0.033776615
113	0xbcd9364b	-0.026515147
114	0x3d93b137	0.072115354
115	0x3cc60a00	0.02417469
116	0x3dc5cc25	0.09658078
117	0x3cad4db2	0.021155212
118	0xbd9ba51a	-0.0759985
119	0x3d59dec8	0.053190976
120	0x3dcfcf03	0.10146906
121	0x3c82e566	0.015978526
122	0x3cd97b51	0.02654806
123	0xbcf86e84	-0.030326135
124	0xbd6c8876	-0.057747327
125	0xbd8c6993	-0.06856074
126	0xbbbc1444	-0.0057397205
127	0xbd80f4c3	-0.062966846
128	0x3d0d203b	0.034454565
129	0xbc0e0eee	-0.008670552
130	0x3d15b96f	0.036553796
131	0x3d5dabae	0.054118805
132	0xbd141515	-0.036152918
133	0xbd8ef8d7	-0.06981056
134	0xbd2e9f27	-0.04263225
135	0xbd3788fd	-0.044808377
136	0xbd1c2f15	-0.03813084
137	0xbc3fd494	-0.011708397
138	0x3b371f70	0.0027942322
139	0xbcccf240	-0.025017858
140	0xbd8ec552	-0.069712296
141	0xbde3390c	-0.11094865
142	0x3e1ed9e5	0.15512808
143	0xbd0ff157	-0.03514227
144	0xbc814ac1	-0.015782716
145	0xbdb51c15	-0.08843247
146	0xbc8dd829	-0.017314987
147	0xbc0df670	-0.008664712
148	0x3cd37846	0.025814187
149	0x3caf9d0f	0.021437196
150	0x3aff1d62	0.0019463713
151	0xbcc633d7	-0.024194641
152	0xbdc4bedf	-0.09606718
153	0xbdf2c249	-0.11853463
154	0xbc245951	-0.01003106
155	0xbcf66d9b	-0.03008156
156	0xbb9e7b8e	-0.004836506
157	0xbd7eaeb7	-0.06217834
158	0x3d5110bf	0.05104136
159	0x3bad0a52	0.0052807713
160	0x3d5f0bd6	0.054454647
161	0x3cbfb26b	0.023400506
162	0x3cb37319	0.021905469
163	0x3d521666	0.051290892
164	0x3cb63f76	0.022247057
165	0x3d0cbd83	0.03436042
166	0x3cc3298b	0.02382352
167	0x3d9266a8	0.071484864
168	0xbd83d8a5	-0.06437806
169	0xbcfaf446	-0.030634057
170	0xbceb4aea	-0.028722245
171	0x3b6b7646	0.003592865
172	0x3c7a092a	0.015260974
173	0xbbd67725	-0.006544965
174	0xbc4d8eee	-0.012546284
175	0xbdc51b75	-0.09624378
176	0xbde1c62f	-0.11024129
177	0x3ca0bde4	0.019621797
178	0xba9733bb	-0.0011535803
179	0xbd807270	-0.06271827
180	0xbc95d159	-0.018288301
181	0x3c66df99	0.014091396
182	0x3cb35754	0.021892227
183	0xbc69c478	-0.014268033
184	0x3c876de2	0.016531888
185	0xbcba6faa	-0.022758324
186	0xbcd6e046	-0.026229989
187	0xbd2c341c	-0.042041883
188	0xbc071131	-0.008243845
189	0x3cdf011b	0.027222207
190	0xbb48d08b	-0.003064188
191	0x3c8b8e8a	0.017035741
192	0xbd72512f	-0.059159454
193	0xbd541cb0	-0.05178517
194	0x3badd335	0.005304719
195	0xbc0c3275	-0.008556952
196	0xbc14e3cc	-0.009087514
197	0x3d2c62c0	0.042086363
198	0x3d697f1c	0.057005987
199	0xbd5181c4	-0.051149145
200	0xbd58b525	-0.052907128
201	0xbc815bf7	-0.015790923
202	0x3d32e030	0.043670833
203	0x3e0770aa	0.13226572
204	0x3e372a92	0.17887333
205	0xbd28478a	-0.04108385
206	0x3c33ac7f	0.010966419
207	0x3c2ca7be	0.01053804
208	0xbd141bb1	-0.03615922
209	0x3d220b68	0.03956166
210	0x3d5dd870	0.05416149
211	0x3bff763a	0.007796076
212	0xbe1514ff	-0.1455879
213	0xbd93fb5f	-0.072256796
214	0xbd5e70a4	-0.05430664
215	0x3cc0cefc	0.023536198
216	0x3ce2b03e	0.02767193
217	0xbcd17b43	-0.025571471
218	0xbcc2eb42	-0.02379382
219	0xbd828627	-0.06373244
220	0xbd94c308	-0.07263762
221	0x3bfc9f19	0.0077093956
222	0xbbfb0d7e	-0.0076615205
223	0xbc8e3ac2	-0.017362002
224	0xbbf5c24f	-0.00749997
225	0x3ce66bd2	0.028127585
226	0x3ccc264b	0.024920603
227	0x3c07b569	0.008282998
228	0xbd15626b	-0.03647081
229	0xbd040efd	-0.032240856
230	0xbd62ed39	-0.055402014
231	0xba4cdf33	-0.00078152417
232	0x3cf00e82	0.029303793
233	0xbc7b54a3	-0.015340003
234	0xbbd41445	-0.006472143
235	0x3ca7bfc9	0.020477192
236	0x3afdf239	0.0019374556
237	0xbdaa574f	-0.08317434
238	0xbe299151	-0.1655934
239	0x3db0a306	0.08624844
240	0x3e0785f8	0.13234699
241	0xbd226f6e	-0.03965705
242	0xbd9a9a1e	-0.07548927
243	0xbdab8bf6	-0.08376305
244	0xbd9657a6	-0.07340936
245	0xbcce1ea4	-0.025161095
246	0x3c9aef8f	0.018913059
247	0xbbb7f15e	-0.00561349
248	0xbd0e02ba	-0.03467057
249	0xbd0fb241	-0.035082106
250	0xbbd2306a	-0.006414463
251	0xbd57f5aa	-0.052724518
252	0xbcf3d08b	-0.029762527
253	0x3b392659	0.0028251617
254	0x3b27eb2a	0.0025622346
255	0xbcd89d2c	-0.026442133

model.0.linear.bias f4 [128]
0	0xbdce11f3	-0.10062017
1	0x3e2607a3	0.1621385
2	0x3d9f34db	0.07773753
3	0xbe4ac9a6	-0.19803485
4	0xbdb024a6	-0.0860074
5	0x3d966599	0.07343597
6	0x3c9c340f	0.019067792
7	0xbe0ce145	-0.13757809
8	0x3ce01bb7	0.027356965
9	0xbde80ff3	-0.11331167
10	0x3d4dabb8	0.050212592
11	0xbd4f103b	-0.050552588
12	0x3e487713	0.19576673
13	0x3d7040ae	0.058655433
14	0x3e5ffe2f	0.21874307
15	0xbe0d6cde	-0.13811061
16	0x3e8fa13b	0.28052697
17	0xbe79bb82	-0.24387935
18	0xbdab0b2f	-0.083517425
19	0x3db11674	0.08646861
20	0x3db39341	0.08768321
21	0x3d7d546a	0.06184808
22	0x3e6124ea	0.21986738
23	0x3c83dc6a	0.016096313
24	0x3d8982cd	0.067144014
25	0xbe618126	-0.22021922
26	0x3c83691f	0.016041337
27	0xbd83ad3b	-0.064295255
28	0x3dda3060	0.10653758
29	0x3d90b870	0.07066429
30	0xbe11eeac	-0.14251202
31	0x3aca04d3	0.0015412815
32	0xbdff8ccd	-0.124780275
33	0x3c5236da	0.01283046
34	0x3d91b523	0.07114627
35	0x3e50dca3	0.20396666
36	0xbc9547c6	-0.0182227
37	0xbd0ba223	-0.034090172
38	0x3d568d1a	0.05238066
39	0x3c0ebd86	0.008712178
40	0x3e351cd0	0.17686772
41	0x3cbf5580	0.0233562
42	0x3e4b536a	0.19856039
43	0x3d73fd53	0.05956776
44	0xbe76f3a5	-0.2411638
45	0x3d0cc1da	0.03436456
46	0xbd3cb80f	-0.04607397
47	0x3d4a345a	0.049366333
48	0x3d83b134	0.06430283
49	0x3e053a80	0.13010597
50	0x3d562c38	0.052288264
51	0x3e155e0b	0.14586656
52	0x3d86e1d0	0.06586039
53	0xbd3e938a	-0.046527423
54	0x3d8bb543	0.06821682
55	0x3e144729	0.1448027
56	0xbdf738ed	-0.120714046
57	0x3d971d46	0.0737863
58	0xbddf2e00	-0.10897446
59	0x3e1cd26a	0.15314642
60	0xbde156b0	-0.110028625
61	0x3e52563f	0.20540713
62	0x3baebcd9	0.005332571
63	0xbc47641f	-0.012169867
64	0x3e5b5a02	0.21421054
65	0x3e62b775	0.22140296
66	0x3d933ae5	0.071889676
67	0xbdc84409	-0.09778602
68	0xbde4086a	-0.11134417
69	0x3c23750b	0.009976636
70	0x3d09c9b6	0.033639632
71	0xbe51bcc1	-0.2048216
72	0x3e6cf266	0.23139343
73	0xbda46ebf	-0.08028936
74	0x3d67d799	0.056602094
75	0x3e4621ef	0.19348882
76	0xbd054c77	-0.032543626
77	0x3d9571bc	0.07297084
78	0x3e036886	0.12832841
79	0x3d223bce	0.039607815
80	0xbe55dfb7	-0.20886122
81	0xbe19584f	-0.14975093
82	0x3dba078f	0.09083473
83	0xbe0dedcb	-0.13860242
84	0xbe5a698b	-0.21329324
85	0xbde4062c	-0.1113399
86	0xbe66ff2a	-0.22558275
87	0x3e10fa2e	0.14157936
88	0xbdc87a65	-0.0978897
89	0xbd9d31b2	-0.07675494
90	0xbdb69ea3	-0.08916976
91	0xbdec4d87	-0.11538225
92	0xbdb65964	-0.08903769
93	0x3d2caa9a	0.042154886
94	0x3daca5aa	0.084300354
95	0xbd0cc9fe	-0.034372322
96	0x3e39c792	0.18142536
97	0x3dabc692	0.08387484
98	0x3c207934	0.009794522
99	0xbe5a7afa	-0.21335974
100	0x3d3c8dca	0.046033658
101	0xbe3eea89	-0.18644156
102	0xbe3bad17	-0.18327747
103	0xbe3fa34e	-0.1871464
104	0x3cd81e88	0.026381746
105	0x3e3ef945	0.18649776
106	0x3dfcbc19	0.12340564
107	0xbdd5cd2e	-0.104395255
108	0x3e337a0e	0.17527029
109	0x3e41bac1	0.18918897
110	0x3d6da809	0.05802158
111	0x38fb3099	0.00011977665
112	0xbe788350	-0.24268842
113	0xbe312686	-0.17299852
114	0xbbed1fc4	-0.007236453
115	0xbe5d4072	-0.21606615
116	0xbe31e515	-0.17372544
117	0x3e343189	0.17597021
118	0x3d8d8c0b	0.06911477
119	0x3e120a7c	0.14261812
120	0x3d6ed7bb	0.058311205
121	0xbe54db3d	-0.20786758
122	0xbcaa884e	-0.020816948
123	0xbdffe391	-0.12494577
124	0x3d15b363	0.03654803
125	0xbdfb7d74	-0.12279788
126	0x3e5ab3b1	0.2135761
127	0x3d52eecc	0.051497266

model.0.norm.weight f4 [128]
0	0x3fa0cf94	1.2563348
1	0x3fb067d0	1.3781681
2	0x3fadbcc5	1.3573233
3	0x3f91b052	1.1381934
4	0x3fb9feea	1.4530919
5	0x3fa849e7	1.3147553
6	0x3fb2b370	1.396101
7	0x3fb07a5a	1.3787339
8	0x3fae34e0	1.3609886
9	0x3fa8f910	1.3201008
10	0x3faea6f6	1.3644702
11	0x3f923f5d	1.1425587
12	0x3fb0aff4	1.3803697
13	0x3fad86a7	1.3556718
14	0x3fb2f300	1.3980408
15	0x3f934d0f	1.1507891
16	0x3fb095b7	1.3795689
17	0x3fa66be1	1.3001672
18	0x3fb26b80	1.3939056
19	0x3fad7ef1	1.3554364
20	0x3fadc275	1.3574969
21	0x3fac9185	1.3481909
22	0x3fb07114	1.3784509
23	0x3fa9584d	1.3230072
24	0x3faa2b8f	1.3294543
25	0x3f920847	1.1408776
26	0x3faa4f95	1.3305537
27	0x3f969e83	1.1767124
28	0x3fac8614	1.3478417
29	0x3fb563b8	1.4171057
30	0x3fb0160e	1.375673
31	0x3fafa546	1.3722312
32	0x3fba328e	1.4546678
33	0x3fa48136	1.2851932
34	0x3fa77574	1.3082719
35	0x3fb2f19e	1.3979986
36	0x3fa09b66	1.2547424
37	0x3fa9ac73	1.3255752
38	0x3fab24d8	1.3370619
39	0x3fad9118	1.3559904
40	0x3fa48f2d	1.2856194
41	0x3fa2d281	1.2720491
42	0x3faa36ec	1.3298011
43	0x3fac6858	1.3469343
44	0x3f9d1d7e	1.2274625
45	0x3fca160d	1.5787979
46	0x3f94e898	1.1633482
47	0x3fadf169	1.3589298
48	0x3faa5920	1.3308449
49	0x3fa9a4ae	1.3253381
50	0x3faf68f7	1.3703908
51	0x3faa742c	1.3316703
52	0x3faf43fa	1.369262
53	0x3fb027e2	1.3762171
54	0x3fb1ec95	1.3900324
55	0x3faad661	1.3346673
56	0x3f9e5095	1.2368342
57	0x3fb1a9b8	1.3879919
58	0x3f99630f	1.1983355
59	0x3fab3e98	1.3378477
60	0x3f8dfe40	1.1093216
61	0x3fad0f0d	1.3520218
62	0x3fab9713	1.3405479
63	0x3fac6edd	1.3471333
64	0x3fa88d03	1.3168033
65	0x3fa8a0ef	1.3174113
66	0x3fa8ccae	1.3187463
67	0x3f984cbb	1.1898416
68	0x3f99cb2d	1.2015129
69	0x3fac7bc4	1.347527
70	0x3fb233cb	1.3922056
71	0x3fa68239	1.3008491
72	0x3fad57f2	1.3542464
73	0x3fafb113	1.3725914
74	0x3fb3d5d5	1.4049631
75	0x3fae7858	1.3630476
76	0x3fb1e24a	1.3897183
77	0x3fab167a	1.3366234
78	0x3fb6ff71	1.4296705
79	0x3fad37c7	1.3532647
80	0x3fb7a5f5	1.4347521
81	0x3f907838	1.1286688
82	0x3fa6fd40	1.3046036
83	0x3fb230d9	1.3921157
84	0x3f912b26	1.1341293
85	0x3fb4bc8c	1.412004
86	0x3f8f0a3c	1.1174998
87	0x3faad018	1.3344755
88	0x3fb9a350	1.4502964
89	0x3fa7403b	1.3066477
90	0x3f93699b	1.1516603
91	0x3f9730a5	1.181172
92	0x3f9c1fbd	1.2197186
93	0x3faed785	1.3659521
94	0x3faaadbe	1.3334272
95	0x3f9f5844	1.2448812
96	0x3fb39878	1.4030905
97	0x3fa39e8b	1.2782758
98	0x3fa40026	1.2812545
99	0x3f989a2f	1.1922053
100	0x3faa1e61	1.3290521
101	0x3f92ccb6	1.1468723
102	0x3f8c807c	1.097671
103	0x3f93ad62	1.1537287
104	0x3fb2af22	1.3959696
105	0x3fb452b2	1.4087737
106	0x3fab414d	1.3379303
107	0x3f9b231d	1.2120091
108	0x3fabdeae	1.3427331
109	0x3faf7463	1.3707393
110	0x3fb0f9bd	1.3826214
111	0x3f94d7d9	1.1628371
112	0x3f711717	0.9417586
113	0x3f92ebde	1.1478231
114	0x3facf61a	1.3512604
115	0x3f650da8	0.8947396
116	0x3f963805	1.1735846
117	0x3fb5fe8e	1.4218309
118	0x3faddd55	1.358317
119	0x3fc9b4c3	1.5758289
120	0x3faa06f0	1.3283367
121	0x3f8e8709	1.113496
122	0x3fb00be3	1.3753628
123	0x3f998707	1.1994332
124	0x3fa65c94	1.2997003
125	0x3fb2c60b	1.3966688
126	0x3faa198a	1.3289044
127	0x3f9e9984	1.2390599

model.0.norm.bias f4 [128]
0	0x3e10c6f8	0.141384
1	0x3e708260	0.23487234
2	0x3e8063dd	0.2507619
3	0x3dba587d	0.09098909
4	0x3e4c1c71	0.19932725
5	0x3e76d6c8	0.2410537
6	0x3e65857d	0.22414203
7	0x3e212876	0.15738091
8	0x3e407b23	0.18796973
9	0x3e6fcd98	0.23418272
10	0x3e4d7b01	0.20066454
11	0x3e26bf7a	0.1628398
12	0x3e65b901	0.22433855
13	0x3e6eca7f	0.23319434
14	0x3e5fce95	0.21856149
15	0x3e908a8d	0.28230706
16	0x3e830cc6	0.25595683
17	0x3e201047	0.1563121
18	0x3e5af47e	0.21382329
19	0x3e3eaf7d	0.18621631
20	0x3e7a9829	0.24472107
21	0x3e59f4bd	0.21284766
22	0x3e657ea3	0.2241159
23	0x3e6611eb	0.22467773
24	0x3e5add54	0.21373492
25	0x3dd605e3	0.104503416
26	0x3e6f08bd	0.23343177
27	0x3e26220b	0.16223924
28	0x3e70cdd7	0.23516022
29	0x3e71efe7	0.23626672
30	0x3e5cb786	0.21554384
31	0x3e69a3e5	0.22816427
32	0x3e51b061	0.2047744
33	0x3e547091	0.20746066
34	0x3e4ba27d	0.19886203
35	0x3e83a34f	0.25710532
36	0x3e643d3e	0.22288987
37	0x3e6d4625	0.2317129
38	0x3e2b68e5	0.16739233
39	0x3e35e5a1	0.17763378
40	0x3e58a1b9	0.21155442
41	0x3e8aaf05	0.27086654
42	0x3e7516ea	0.23934522
43	0x3e7a3012	0.244324
44	0x3dc51686	0.09623437
45	0x3de1856a	0.11011775
46	0x3e2f4bd6	0.17118773
47	0x3e529dab	0.20567958
48	0x3e20e5f5	0.15712722
49	0x3e89a180	0.26881027
50	0x3e81a93f	0.25324437
51	0x3e884640	0.26616096
52	0x3e9001dd	0.28126422
53	0x3e2dcf76	0.16973671
54	0x3e68e211	0.22742487
55	0x3e2bb0d5	0.16766675
56	0x3ca8cb8b	0.02060487
57	0x3e3b09ca	0.18265453
58	0x3e224660	0.15847158
59	0x3e404377	0.18775736
60	0x3e202e16	0.1564258
61	0x3e728171	0.2368219
62	0x3e610a80	0.21976662
63	0x3e552d1a	0.20817986
64	0x3e670dc3	0.22563843
65	0x3e7657fe	0.24057004
66	0x3e4ca276	0.19983849
67	0x3e2aee96	0.16692576
68	0x3e578c43	0.210496
69	0x3e8114e1	0.25211242
70	0x3e61db6c	0.22056359
71	0x3ea8b962	0.32953936
72	0x3e6634ef	0.2248113
73	0x3e638f69	0.22222675
74	0x3e27787c	0.16354555
75	0x3e6a5b45	0.22886379
76	0x3e5c55f8	0.2151717
77	0x3e85ebc9	0.26156452
78	0x3e4b76f3	0.19869594
79	0x3e730aa7	0.23734532
80	0x3e596820	0.21231127
81	0x3e0d6ea7	0.13811742
82	0x3e74434e	0.238538
83	0x3e78bf0c	0.24291629
84	0x3dc69adc	0.09697506
85	0x3e4466ba	0.19179812
86	0x3df04f8c	0.11733922
87	0x3e5cadaa	0.21550623
88	0x3e22f4fc	0.15913767
89	0x3de72610	0.11286557
90	0x3e52a532	0.2057083
91	0x3e6520b5	0.22375758
92	0x3e31a4b7	0.1734799
93	0x3e65ab01	0.22428514
94	0x3e28264d	0.1642086
95	0x3e24eec6	0.1610671
96	0x3e242786	0.16030702
97	0x3e5941c2	0.21216491
98	0x3e2e5acc	0.17026824
99	0x3e49aa1c	0.19693798
100	0x3e837416	0.25674504
101	0x3ceee8db	0.029163769
102	0x3de38ce8	0.1111086
103	0x3d23d217	0.03999528
104	0x3e5119ac	0.2041995
105	0x3e5f7b41	0.21824361
106	0x3e773722	0.24142125
107	0x3e38816c	0.1801812
108	0x3e522b7f	0.20524405
109	0x3e725fab	0.23669307
110	0x3e43ce51	0.19121672
111	0x3e0cfff0	0.13769507
112	0x3cd0489a	0.025425244
113	0x3e10d6bb	0.14144413
114	0x3e293e72	0.16527727
115	0x3c181481	0.009282232
116	0x3ca9158f	0.020640163
117	0x3e83aaff	0.25716397
118	0x3e6744b9	0.2258481
119	0x3e6d7487	0.23188983
120	0x3e7abccb	0.24486081
121	0x3e39914d	0.18121834
122	0x3e8f010e	0.27930492
123	0x3e317495	0.17329629
124	0x3e702765	0.23452528
125	0x3e8819c6	0.26582164
126	0x3e5f6339	0.21815194
127	0x3e660b94	0.22465354

model.0.shortcut.weight f4 [128, 855]
0	0x3d0a5d29	0.03378025
1	0x3c6a85d7	0.0143141365
2	0xbc7faf59	-0.015605771
3	0x3cf08b49	0.029363291
4	0x3bc854f4	0.006113643
5	0xbcc1f069	-0.023674207
6	0xbc9308c9	-0.017948525
7	0xbb451f76	-0.0030078567
8	0xbb9b5ec8	-0.0047415234
9	0x3d1e8450	0.0387004
10	0x3cc00538	0.023439988
11	0xbc3185b3	-0.010835099
12	0xbcb2d826	-0.021831583
13	0x3b659603	0.003503204
14	0xbcca44cd	-0.02469101
15	0xbcea9ac4	-0.028638251
16	0xbc2b20d0	-0.010444835
17	0xbc48db6d	-0.012259346
18	0xbc803153	-0.01564852
19	0xbbb03303	-0.005377175
20	0xbcd0fe20	-0.025511801
21	0x3cd4793d	0.025936717
22	0xbcc24f44	-0.023719437
23	0xbd522524	-0.05130495
24	0xbc520f6c	-0.01282106
25	0x3ca1663c	0.01970207
26	0x3cf31a91	0.029675754
27	0x3c21b38d	0.009869468
28	0x3cc0c27a	0.023530234
29	0xbc1ba832	-0.00950055
30	0xbd05fd87	-0.032712486
31	0x3d16207d	0.036652077
32	0xbb70c1d2	-0.003673662
33	0xbd1a230b	-0.037631076
34	0xbbcd683b	-0.0062685288
35	0xbcb51e5b	-0.022109201
36	0x3c9592e2	0.018258516
37	0xbcafe10b	-0.021469614
38	0x3ce6a064	0.028152652
39	0x3c3ffde2	0.011718245
40	0x3c8dbb9d	0.017301375
41	0x3cc38630	0.023867697
42	0x3bd46b95	0.0064825513
43	0xbcf19ab0	-0.029492706
44	0x3c3d10a7	0.011539615
45	0xbb9dea05	-0.004819157
46	0xbd5005a3	-0.050786626
47	0xbd3c645b	-0.045994144
48	0xbd4020ed	-0.0469064
49	0x3b9778cd	0.004622555
50	0x3a069bad	0.0005134892
51	0x3c2c988c	0.010534417
52	0x3beed39a	0.0072884085
53	0xbc8f4455	-0.017488638
54	0xbbb90c58	-0.0056472234
55	0x3c5063f6	0.012719145
56	0xbc20b74f	-0.009809329
57	0xbc8a548f	-0.016886024
58	0x3d28ba3e	0.04119324
59	0xbc9d1b0d	-0.019177938
60	0xbc9939fb	-0.018704405
61	0xbb479fc9	-0.003046023
62	0x3c44bf98	0.01200857
63	0xbb04c2ff	-0.0020257828
64	0x3be315aa	0.006930073
65	0x3cc95c4e	0.024580147
66	0x3c80bd9e	0.015715417
67	0xbbbeccea	-0.0058227675
68	0xbc368879	-0.011140936
69	0x3cedd80e	0.029033687
70	0xbcebaa78	-0.02876781
71	0xbce86c99	-0.028372096
72	0xbd154152	-0.036439247
73	0x3c445326	0.011982715
74	0x3c4bc3bb	0.0124368025
75	0x3c4c391d	0.012464789
76	0xbd655d2b	-0.055997055
77	0xbcb6d7e4	-0.022319742
78	0xbd11c5d0	-0.03558904
79	0x3c0cf70f	0.008603825
80	0xbccd9553	-0.025095617
81	0x3bc3f50b	0.005980139
82	0xbcbaf168	-0.02282019
83	0x3b869348	0.0041069128
84	0xbcd00b9d	-0.025396163
85	0xbd1f2a9a	-0.038858987
86	0xbc8514fc	-0.016245358
87	0x3c253446	0.010083264
88	0x3d197d67	0.03747311
89	0xbbb3e543	-0.0054899766
90	0x3b2dc568	0.0026515368
91	0x3cdfd890	0.027324945
92	0xbcddaf54	-0.027061142
93	0xbcbc7d6a	-0.02300902
94	0xbc018c47	-0.00790698
95	0x3c73def1	0.014884696
96	0x3ba7953b	0.005114225
97	0xbc0d7cb1	-0.008635686
98	0x3c91549c	0.01774054
99	0xbc16d24c	-0.009205412
100	0x3c6b0788	0.014345057
101	0xbd3c736a	-0.046008505
102	0xbb4c8ea8	-0.003121296
103	0x3d0054fb	0.031331044
104	0x3d4b979e	0.04970514
105	0xbc7b78be	-0.015348611
106	0xbc355ddf	-0.011069744
107	0x3d3c7500	0.046010017
108	0xbd4d03ec	-0.05005257
109	0xbc95f883	-0.018306976
110	0xbccfebcf	-0.025380997
111	0xbc1b9ea1	-0.009498269
112	0xbd0e9c12	-0.03481681
113	0xbc8f9189	-0.017525451
114	0x3d322749	0.043494496
115	0xbc2b6199	-0.010460281
116	0xbc8e236d	-0.017350877
117	0x3cc89575	0.02448533
118	0xbd477327	-0.048693802
119	0xbd200109	-0.039063487
120	0x3c71e0e2	0.014763089
121	0xbcb62472	-0.022234175
122	0x3cb8d958	0.022564575
123	0x3ca720b4	0.020401336
124	0x3bdf876d	0.006821564
125	0x3c4c8ef9	0.012485259
126	0x3c1cd4bc	0.009572204
127	0x3cea94fc	0.028635494
128	0x3c28faf7	0.010313741
129	0x3d40517e	0.046952717
130	0x3c14f971	0.009092675
131	0xbd0c60b6	-0.03427192
132	0x3ca270e6	0.019829225
133	0xbc7809d3	-0.015139061
134	0x3bb99976	0.005664046
135	0xbc31d98d	-0.010855091
136	0x3c98c50c	0.018648647
137	0xbd19ec11	-0.037578646
138	0x3cbe1911	0.023205312
139	0xbd41648b	-0.047215026
140	0x3cffa46c	0.031206332
141	0xbc4c095e	-0.012453405
142	0xbccc9e33	-0.024977779
143	0x3ca4f239	0.020135032
144	0x3d2b6692	0.041845866
145	0x3bdacfe1	0.006677613
146	0xbcdbaeec	-0.026816808
147	0xbb89653a	-0.0041929753
148	0xbc50330b	-0.012707482
149	0x3d1ae42e	0.037815265
150	0x3c449dc4	0.012000505
151	0x3cf94fdf	0.030433593
152	0xbcb8b05f	-0.022545038
153	0xbcc26021	-0.023727478
154	0x3a9e7d97	0.0012091872
155	0x3b4bd7bb	0.0031103927
156	0xbc0657bc	-0.008199628
157	0x3be480cc	0.0069733616
158	0x3c80b07b	0.015709152
159	0x3bd58b76	0.006516869
160	0x3c26cb3f	0.010180294
161	0xbc69eef0	-0.014278159
162	0xba1aa43c	-0.00058991066
163	0x3c62aacd	0.013834667
164	0x3bad05f3	0.00528025
165	0x3c64344b	0.013928483
166	0xbc16e20f	-0.00920917
167	0x3c556baa	0.013026157
168	0xbb5dd691	-0.0033849815
169	0xbc990a02	-0.01868153
170	0x3ca210b9	0.019783365
171	0x3bf643ea	0.00751542
172	0xbcaa0c05	-0.020757684
173	0x3c97233a	0.018449415
174	0xbd4d5b0b	-0.050135653
175	0x3d158823	0.036506783
176	0x3cdb2fce	0.026756193
177	0x3c72d26d	0.014820677
178	0x3d37f0e3	0.04490746
179	0x3bd95ef1	0.0066336324
180	0xbc823acc	-0.015897177
181	0xbcc7ba8e	-0.024380948
182	0xbb879a84	-0.0041382927
183	0x3be0ad25	0.006856578
184	0xbbd907e0	-0.006623253
185	0xbd052940	-0.032510042
186	0xbc50bbf0	-0.01274012
187	0x3bf51789	0.0074796122
188	0xbcd66fd4	-0.02617637
189	0xbd5c0934	-0.053719714
190	0x3bf2c9f0	0.0074093267
191	0xbc0eb5d5	-0.008710344
192	0xbcc5c32a	-0.024140913
193	0x3d020025	0.03173842
194	0x3b88e685	0.0041778707
195	0xbc6cc711	-0.014451758
196	0xbc4c9c4f	-0.012488439
197	0xbc79affd	-0.015239713
198	0xbc92d35d	-0.017923051
199	0x3caee566	0.02134962
200	0xbc0f7014	-0.008754749
201	0xbd157b35	-0.036494453
202	0xbd13e8bd	-0.03611063
203	0xbd0eacad	-0.034832645
204	0x3ce154de	0.027506288
205	0xbd32028c	-0.04345946
206	0xbd093e0a	-0.03350643
207	0xbd4fad78	-0.050702542
208	0x3d26b9ec	0.040704653
209	0xbc0a84e3	-0.008454534
210	0x3cf5d65c	0.030009441
211	0xbc1e2b09	-0.009653815
212	0xbad6b348	-0.0016380334
213	0x3bed6a81	0.0072453623
214	0x3c5aceb8	0.01335495
215	0x3c98986f	0.018627374
216	0xbc9cc56b	-0.019137105
217	0x3bda4d0c	0.0066620167
218	0x3c9176a5	0.01775677
219	0xbc918f2b	-0.017768463
220	0x3c40d503	0.011769536
221	0x3cbd5f42	0.023116712
222	0xbb04b1c8	-0.0020247567
223	0xbd0ce70d	-0.034400035
224	0xbd5f9901	-0.054589275
225	0x3c0317ac	0.008001249
226	0xbc11ce71	-0.008899317
227	0x3c821fd1	0.015884312
228	0xba382e4a	-0.00070259406
229	0x3bc3af8f	0.005971856
230	0xbd18fed2	-0.03735239
231	0xbba7702c	-0.0051098075
232	0x3c813031	0.01577005
233	0xbca8cbe4	-0.020605035
234	0x3c5f4bfb	0.013628955
235	0x3b956c71	0.0045600464
236	0xbca21946	-0.019787442
237	0xbb85e389	-0.004085962
238	0xbd2ab1ee	-0.041673593
239	0xbd602531	-0.05472297
240	0xbd57ee7d	-0.052717675
241	0x3cf3c0f1	0.029755088
242	0xbc88bf8e	-0.016692903
243	0xbd38f3a5	-0.045154233
244	0x3b493377	0.0030700841
245	0xbd1230a6	-0.035690926
246	0xbcd6157a	-0.026133288
247	0xbd528b1c	-0.051402196
248	0xbc8e5624	-0.01737506
249	0xbaffbe0e	-0.0019511597
250	0xbc42337a	-0.011853093
251	0xbd179dac	-0.037015602
252	0x3c66123f	0.014042436
253	0x3b848b13	0.0040448993
254	0xbcee802b	-0.02911385
255	0x3b6fb15e	0.0036574225

model.0.shortcut.bias f4 [128]
0	0x3ebd6577	0.36991474
1	0x3ed2ee37	0.41197369
2	0x3edd5b86	0.4323389
3	0x3e721956	0.23642477
4	0x3efa642d	0.48904553
5	0x3ebb562d	0.36589184
6	0x3f034468	0.51276255
7	0x3edca434	0.43094027
8	0x3ef3eb18	0.476403
9	0x3eead95b	0.45868954
10	0x3ef17e75	0.47166792
11	0x3ec2977b	0.38006195
12	0x3edce46d	0.43143025
13	0x3ef4ab75	0.4778706
14	0x3ed64d29	0.41855744
15	0x3e99f0ad	0.30066434
16	0x3efaaa98	0.48958278
17	0x3e42a785	0.19009216
18	0x3edd7409	0.4325259
19	0x3ecb824b	0.39747843
20	0x3ef07e9c	0.46971595
21	0x3ef22139	0.47290972
22	0x3ef6bfc9	0.48193195
23	0x3ed28ff4	0.41125453
24	0x3ed494d1	0.41519788
25	0x3e6f08e4	0.23343235
26	0x3ed09395	0.40737596
27	0x3eb064c3	0.34451875
28	0x3edf89ef	0.43659922
29	0x3ef6f295	0.4823195
30	0x3edbc636	0.4292466
31	0x3ef0a99f	0.4700441
32	0x3ee67077	0.4500768
33	0x3ec22635	0.37919775
34	0x3edeebbd	0.4353923
35	0x3ec39266	0.3819763
36	0x3ec21082	0.3790322
37	0x3ed4ad16	0.41538304
38	0x3ed269eb	0.41096434
39	0x3eee65e6	0.46562117
40	0x3ee54a90	0.4478345
41	0x3ecb88a1	0.39752677
42	0x3ec7b631	0.3900619
43	0x3efe869b	0.4971207
44	0x3e4a43b2	0.19752386
45	0x3ef45e48	0.4772818
46	0x3ecf3dfd	0.4047698
47	0x3ef88efd	0.4854659
48	0x3ee4fc7b	0.44723877
49	0x3eee1d8d	0.4650692
50	0x3ef6178c	0.4806484
51	0x3ed0efe9	0.40808037
52	0x3ed6c564	0.41947472
53	0x3eb31b07	0.34981558
54	0x3ee9790d	0.45600167
55	0x3ee088a5	0.43854252
56	0x3ebeeeec	0.37291658
57	0x3ef4a542	0.47782332
58	0x3eb63506	0.3558733
59	0x3ec9c5ef	0.39408824
60	0x3ea0317e	0.3128776
61	0x3ee24210	0.44191027
62	0x3ef5cfdf	0.48010156
63	0x3ef449cf	0.4771256
64	0x3ee2cf39	0.44298723
65	0x3ee639f6	0.44966096
66	0x3ee39bce	0.44454807
67	0x3ec21735	0.3790833
68	0x3ea60dfe	0.3243255
69	0x3eeea626	0.46611136
70	0x3ee56982	0.4480706
71	0x3eda7cdd	0.42673388
72	0x3ece5f21	0.40306953
73	0x3ed569ad	0.41682187
74	0x3ef06481	0.46951678
75	0x3edc63d6	0.4304492
76	0x3ee62772	0.4495197
77	0x3ed6f58e	0.41984218
78	0x3ebaf4e2	0.36514956
79	0x3eed9aa2	0.46407038
80	0x3edf2b5e	0.43587774
81	0x3e818836	0.25299233
82	0x3ee719c0	0.45136833
83	0x3ef3d6a0	0.47624683
84	0x3e698b0e	0.22806951
85	0x3ebd73e7	0.3700249
86	0x3e9623ca	0.2932418
87	0x3ec1563b	0.377611
88	0x3efb8f8d	0.49132958
89	0x3ee64dab	0.4498113
90	0x3eada6d6	0.33916348
91	0x3e8d11fd	0.27552786
92	0x3edc8ebd	0.4307765
93	0x3eeba087	0.4602091
94	0x3ec6a257	0.3879573
95	0x3eb6ccc5	0.35703102
96	0x3eec9df0	0.46214247
97	0x3ebf1d47	0.37327024
98	0x3ed476d1	0.414969
99	0x3ea7b260	0.32753277
100	0x3ed2a273	0.41139564
101	0x3ea0672f	0.31328723
102	0x3e52a7f9	0.20571889
103	0x3e78630a	0.2425653
104	0x3ef9e1f7	0.4880521
105	0x3ef80d21	0.48447517
106	0x3eddd54c	0.43326795
107	0x3ebf04f3	0.37308463
108	0x3ee40a16	0.44538945
109	0x3ee51e32	0.447496
110	0x3edc54ad	0.43033352
111	0x3eae7792	0.340756
112	0x3db97ab4	0.09056607
113	0x3ea633be	0.3246135
114	0x3eddebed	0.4334406
115	0x3d9cdc65	0.076592244
116	0x3eb92d3f	0.36167333
117	0x3ecf5d9b	0.40501103
118	0x3ee47c74	0.446262
119	0x3ef1c967	0.4722397
120	0x3ed3682f	0.41290423
121	0x3e9735ff	0.29533383
122	0x3ee5b69e	0.44865888
123	0x3eaa3dfd	0.33250418
124	0x3edba109	0.42896298
125	0x3ef93708	0.48674798
126	0x3ee391b9	0.44447115
127	0x3ed011ee	0.4063868

model.1.linear.weight f4 [64, 128]
0	0xbcb9c295	-0.022675792
1	0xbce8a17a	-0.02839731
2	0x3c69d2a3	0.014271411
3	0x3c1c3225	0.00953344
4	0xbd7d4965	-0.061837573
5	0xbd5fd36b	-0.054644983
6	0xbd7183cd	-0.058963586
7	0xbd8f3f7e	-0.06994532
8	0xbd015373	-0.031573724
9	0xbd87695d	-0.06611893
10	0xbdc36c89	-0.09542186
11	0x3cea8c4c	0.028631352
12	0xbd8db514	-0.069193035
13	0xbd842f76	-0.06454365
14	0x3d124d01	0.035717968
15	0xbd11f84b	-0.03563718
16	0xbd6e4563	-0.05817164
17	0x3db9b72d	0.09068141
18	0xbe08f07e	-0.1337299
19	0x3d13268b	0.03592543
20	0xbd12dc06	-0.035854362
21	0xbd8289c9	-0.06373937
22	0x3d5480df	0.051880714
23	0xbdba47ee	-0.09095751
24	0xbd9d5425	-0.07682065
25	0xbd0dad74	-0.034589246
26	0xbda4a62a	-0.08039506
27	0xbc95b283	-0.018273598
28	0xbdd9579c	-0.10612413
29	0xbcd6aae7	-0.02620454
30	0xbd966030	-0.07342565
31	0x3c4e4ecf	0.012592032
32	0x3b981bef	0.004642002
33	0xbd8e5952	-0.0695063
34	0xbcc6670b	-0.024219057
35	0x399e2c96	0.00030169328
36	0xbcaa32d5	-0.020776192
37	0xbcdab9b1	-0.026699873
38	0xbcd724f5	-0.02626274
39	0x3d589883	0.05287982
40	0x3c9ede0d	0.019392991
41	0xbd83e66d	-0.064404346
42	0x3d28c7d7	0.041206207
43	0xbd05c0d4	-0.0326546
44	0x3cec6bcb	0.028859993
45	0xbcaee217	-0.021348042
46	0x3c691f62	0.014228674
47	0xbbaa18c9	-0.005190943
48	0xbd55a27d	-0.052156914
49	0xbda32270	-0.07965553
50	0xbd27dbf7	-0.04098126
51	0xbd90aa0a	-0.070636824
52	0x3cb5438d	0.022126937
53	0x3dbff566	0.09372978
54	0xbda1f3fe	-0.07907866
55	0xbd5b22f8	-0.053500146
56	0xbc61e036	-0.013786366
57	0xbd000092	-0.031250544
58	0x3ccd2acd	0.025044823
59	0xbca9cc73	-0.020727372
60	0xbd452238	-0.048128337
61	0xbd4c96e1	-0.049948577
62	0xbd4ef2a7	-0.05052438
63	0x3b59db79	0.0033242388
64	0xbb39d9f8	-0.002835868
65	0xbd3c7c17	-0.04601678
66	0xbcbf8de0	-0.023383081
67	0xbd26e22b	-0.040743034
68	0xbd38a5e0	-0.045080066
69	0x3ca3d499	0.019998835
70	0xbd5e0aa4	-0.054209366
71	0x3d3e6773	0.046485376
72	0xbce0caad	-0.027440393
73	0x3cad93ca	0.021188635
74	0x3d62fa44	0.055414453
75	0x3c44d02e	0.0120125245
76	0x3c8e1a9f	0.017346678
77	0xbc3fb55c	-0.011700954
78	0x3cd07d3e	0.025450345
79	0xbdc9343b	-0.09824415
80	0xbcb08911	-0.021549733
81	0x3da9a942	0.082842365
82	0xbd4d8148	-0.05017212
83	0xbd807fd6	-0.06274383
84	0x3d895ad9	0.06706781
85	0x3abdeb15	0.0014489616
86	0xbcea5878	-0.028606638
87	0x3d07a3fc	0.033115372
88	0x3be206d9	0.006897789
89	0xbcf93023	-0.030418461
90	0x3e17c185	0.14819916
91	0x3de46590	0.11152184
92	0xbc500762	-0.012697073
93	0xbd47ef14	-0.048811987
94	0xbd0b6dbb	-0.034040194
95	0x3d257c11	0.040401522
96	0xbbfb86cc	-0.007675981
97	0xbcc3bc62	-0.023893539
98	0xbcd6dd63	-0.026228612
99	0xbd87c16b	-0.066286884
100	0xbc806c8b	-0.015676757
101	0xbb3b637e	-0.0028593238
102	0xbd1c95a1	-0.038228635
103	0x3da4d504	0.08048442
104	0xbd3f9d1e	-0.046780698
105	0xbd94e3d2	-0.07270016
106	0x3b9a86a1	0.004715756
107	0xbd890292	-0.066899434
108	0xbcf9dc1f	-0.03050047
109	0xbd900dac	-0.07033858
110	0xbd268ba0	-0.0406605
111	0xbd663bf1	-0.05620951
112	0xbd43a639	-0.047765944
113	0x3d0628b5	0.032753665
114	0xbd2c94aa	-0.042133965
115	0xbe302245	-0.17200573
116	0xbc25aeef	-0.010112508
117	0xb9ce45d4	-0.00039343408
118	0xbd8647ce	-0.065566644
119	0x3c420c9b	0.011843826
120	0xbd86c146	-0.06579833
121	0xbda0864f	-0.07838117
122	0xbd84c47e	-0.064827904
123	0xbcd8a0ce	-0.026443865
124	0xbd104d93	-0.03523023
125	0xbc8a2256	-0.016862076
126	0xbd06474c	-0.032782838
127	0x3baea65d	0.0053298906
128	0xbd5aee35	-0.05344983
129	0xbd7cd727	-0.061728623
130	0xbd0c0e2f	-0.034193214
131	0x3cb21a96	0.021741193
132	0xbda99e42	-0.082821384
133	0xbc6a6e16	-0.014308473
134	0xbcf9e413	-0.030504262
135	0xbd94e324	-0.07269886
136	0xbe0f17d2	-0.1397393
137	0xbc51c6be	-0.0128037315
138	0xbdf1f1d2	-0.11813702
139	0xbd842d65	-0.06453971
140	0x3cf47673	0.029841637
141	0xbd4937cf	-0.04912549
142	0xbcda056d	-0.026613915
143	0x3d464b5c	0.048411712
144	0x3bfca30c	0.0077098664
145	0x3e38495e	0.17996737
146	0xbdcdb1b1	-0.100436576
147	0xbd31e4a4	-0.04343094
148	0x3d59976d	0.053122927
149	0xbcbd6d91	-0.023123534
150	0xb9f11f80	-0.0004599057
151	0xbd178867	-0.036995318
152	0xbd99c9f7	-0.07509225
153	0x3bf7fc26	0.0075679002
154	0xbc52f3bc	-0.012875494
155	0x3d97ba9d	0.074086405
156	0xbe019cd1	-0.12657477
157	0x3c74ba9a	0.014937067
158	0xbd2f6737	-0.042823043
159	0xbd40b14b	-0.04704408
160	0xbc6cb5df	-0.014447658
161	0x3d12c02f	0.03582781
162	0xbc9e91b5	-0.019356588
163	0x3c1e5608	0.009664066
164	0xbdb73f98	-0.089476764
165	0xbc553308	-0.013012655
166	0xbdb81271	-0.089878924
167	0x3d00892f	0.03138083
168	0xbd8938f5	-0.06700317
169	0x3d4d4f2c	0.050124332
170	0xbc2ecf91	-0.010669605
171	0xbb6c166e	-0.0036024111
172	0x3dee2461	0.116280325
173	0xbd995fc9	-0.07488973
174	0xbb9db0fd	-0.0048123584
175	0xbd9ad863	-0.07560804
176	0xbca8e747	-0.020618094
177	0xbd607e01	-0.054807667
178	0xbded81f8	-0.11597055
179	0xbda0b431	-0.07846869
180	0xbd6616d3	-0.05617411
181	0x3de5f455	0.11228243
182	0xb91f03c9	-0.00015164832
183	0xbcdd177a	-0.026988734
184	0xbca18c7c	-0.019720308
185	0xbd04c0ef	-0.03241056
186	0xbd33da03	-0.043909084
187	0xbd05ad92	-0.032636233
188	0xbd136036	-0.035980426
189	0xbcd895ab	-0.026438555
190	0xbd385d3d	-0.045010794
191	0xbd8af720	-0.067854166
192	0xbdb1126b	-0.08646091
193	0xbda0eedb	-0.07858058
194	0x3a9919fc	0.0011680718
195	0x3d30ae7f	0.043135162
196	0x3d93f237	0.07223933
197	0x3ccd2486	0.02504183
198	0xbd6e1b23	-0.05813135
199	0xbd7f2a4a	-0.06229619
200	0xbdd5bd67	-0.10436516
201	0xbd22fc0b	-0.03979115
202	0xbd827fd4	-0.063720375
203	0xbbe9571f	-0.0071209813
204	0xbd170b2a	-0.03687588
205	0xbd36fb20	-0.044673085
206	0xbdcaf4b1	-0.099099524
207	0xbd124d2d	-0.03571813
208	0x3cf76eda	0.030204225
209	0x3bd64589	0.006539051
210	0xbd3cfa67	-0.04613724
211	0xbdecc3ca	-0.11560781
212	0x3d785819	0.06063089
213	0x3caa8ebd	0.020820016
214	0x3ccb366e	0.024806228
215	0xbd3aaf1c	-0.045577154
216	0xbdae38da	-0.08506937
217	0x3cc90c16	0.024541896
218	0xbc682f7e	-0.014171479
219	0x3d4fa315	0.050692637
220	0x3d9aee44	0.07564977
221	0xbd02780f	-0.031852778
222	0xbd8517c9	-0.06498677
223	0x3d0fcd77	0.035108056
224	0x3c7a6e43	0.0152850775
225	0xbdaab0a8	-0.08334476
226	0xbd77a4a7	-0.06045976
227	0x3d95129f	0.07278942
228	0x3c6b7784	0.014371756
229	0xbbaafd53	-0.005218187
230	0xbd8bf7dd	-0.068343855
231	0x3d4270ae	0.04747074
232	0x3c18ec4f	0.009333684
233	0xbd939572	-0.07206239
234	0xbd4b91af	-0.04969948
235	0xbbe1b78c	-0.0068883356
236	0xbb872c70	-0.0041251704
237	0xbd0b947c	-0.034077153
238	0x3d3000f8	0.042969674
239	0xbd0eae1f	-0.034834024
240	0xbe21d7ee	-0.15805027
241	0x3d82c0e2	0.06384446
242	0xbd7d1cfa	-0.061795212
243	0xbe24df8b	-0.161009
244	0xbcc4916c	-0.023995124
245	0x3ce5b866	0.02804203
246	0xbc5078e0	-0.012724131
247	0xbd598975	-0.053109605
248	0xbcf363cc	-0.029710673
249	0xbd2c4a49	-0.04206303
250	0xbd95b6f8	-0.07310289
251	0x3d12dd28	0.035855442
252	0xbd5bca43	-0.05365969
253	0x3c58d6e1	0.013234825
254	0xbc650a2c	-0.013979476
255	0xbd6bf0b4	-0.0576026

model.1.linear.bias f4 [64]
0	0xbdd84ed4	-0.1056191
1	0xbd35c734	-0.044379428
2	0xbcac26b7	-0.021014554
3	0x3db980af	0.090577476
4	0xbce1e4d8	-0.027574942
5	0xbc1a0e69	-0.00940285
6	0x3c98c93d	0.018650645
7	0xbc49ce5a	-0.012317264
8	0xbdf9de0e	-0.12200557
9	0xbb306237	-0.002691401
10	0xbc454544	-0.01204044
11	0x3d8f445f	0.069954626
12	0xbcee015d	-0.029053384
13	0x3c9098e9	0.017651038
14	0x3d98d4e2	0.07462479
15	0xbe45a08c	-0.19299525
16	0x3e114201	0.14185335
17	0x3e1a95c8	0.150962
18	0x3b0ce813	0.0021500632
19	0x3d2ac998	0.04169616
20	0xbe1b84c4	-0.15187365
21	0x3daea841	0.08528186
22	0xbd9fefa5	-0.078093804
23	0xbd3ab7ee	-0.045585565
24	0xbd47d26b	-0.048784655
25	0xbdf012fe	-0.117223725
26	0xbda47939	-0.08030934
27	0x3cbcd7b8	0.023052081
28	0x3d5e01da	0.054200985
29	0xbd16289c	-0.036659822
30	0xbdbe83e0	-0.09302497
31	0x3de16519	0.11005611
32	0xbd89a136	-0.06720202
33	0xbce3552d	-0.027750576
34	0x3dd30627	0.10303908
35	0xbc67c14d	-0.014145208
36	0xbe2c9887	-0.1685506
37	0xbca9f42c	-0.020746313
38	0xbc97dacd	-0.01853695
39	0xbe2815a6	-0.16414508
40	0xbd16d6b4	-0.03682585
41	0x3d40429c	0.046938524
42	0x3d2b48f3	0.041817617
43	0xbe0ea95b	-0.13931791
44	0xbcdb5cd1	-0.026777657
45	0x3c722b0e	0.014780773
46	0x3cea69eb	0.028614959
47	0xbdb491a3	-0.088168405
48	0x3caf82c4	0.021424659
49	0xbd9336c7	-0.07188182
50	0xbe0a450e	-0.13502905
51	0x3dad78f1	0.08470333
52	0x3def696a	0.11690028
53	0x3deaac98	0.11458701
54	0x3dc77260	0.09738612
55	0xbde529ec	-0.111896366
56	0x3e0463b1	0.12928654
57	0x3db8df91	0.09027017
58	0x3e0ad510	0.1355784
59	0x3decad85	0.11556534
60	0xbd606b8a	-0.054790057
61	0x3d47ba4a	0.048761643
62	0x3ddde315	0.10834328
63	0x3d99075a	0.07472105

model.1.norm.weight f4 [64]
0	0x3f86c958	1.0530195
1	0x3f8aec97	1.0853451
2	0x3fa46178	1.2842245
3	0x3fa92725	1.3215071
4	0x3f727ba9	0.9471994
5	0x3fa370bc	1.2768779
6	0x3f9a0d8a	1.2035382
7	0x3fa13b3e	1.2596204
8	0x3f8c25a2	1.0948985
9	0x3f82c371	1.0215894
10	0x3f9b308d	1.2124192
11	0x3fad5ee7	1.3544587
12	0x3f948028	1.160161
13	0x3fa66fcf	1.3002871
14	0x3fa93ad0	1.3221073
15	0x3f854d5c	1.0414233
16	0x3fa947ad	1.3224999
17	0x3fa4fc17	1.2889432
18	0x3f8eeb26	1.1165512
19	0x3fa189e3	1.2620205
20	0x3f972d21	1.1810647
21	0x3facc5d1	1.3497869
22	0x3f880835	1.0627505
23	0x3faaf8cc	1.3357177
24	0x3f8ab9b4	1.0837922
25	0x3faff43f	1.3746413
26	0x3f97cb75	1.1858965
27	0x3fa7f4b0	1.3121548
28	0x3fa6b75f	1.302471
29	0x3faadde1	1.3348962
30	0x3f8f36cf	1.1188601
31	0x3fa27949	1.2693263
32	0x3f713265	0.9421752
33	0x3f777186	0.966576
34	0x3fa3a1e2	1.2783778
35	0x3f783991	0.9696284
36	0x3f722d3d	0.9460028
37	0x3fa41b25	1.2820784
38	0x3fa98e1e	1.3246496
39	0x3f876959	1.0579025
40	0x3f982ef0	1.1889324
41	0x3f8c6587	1.0968484
42	0x3fa874d2	1.3160651
43	0x3f98b969	1.1931583
44	0x3fb13d5c	1.384685
45	0x3facb66f	1.3493174
46	0x3fa0e2ac	1.2569175
47	0x3f7cceb2	0.9875289
48	0x3fa43bbc	1.283073
49	0x3f8ac4ad	1.0841271
50	0x3f95aca8	1.1693316
51	0x3f8ea786	1.1144874
52	0x3fa70648	1.3048792
53	0x3fa4cba1	1.2874643
54	0x3fb36cee	1.4017618
55	0x3f71fba4	0.945246
56	0x3fa6fad3	1.3045295
57	0x3fa735b0	1.3063259
58	0x3f9f13a3	1.2427868
59	0x3f937e63	1.1522945
60	0x3f8b1055	1.0864359
61	0x3fae0b9c	1.3597293
62	0x3fa39d40	1.2782364
63	0x3fa832bc	1.3140483

model.1.norm.bias f4 [64]
0	0xbc069d4b	-0.0082162125
1	0x3c471311	0.012150542
2	0x3e99ad04	0.30014813
3	0x3eb07384	0.3446313
4	0xbd92f22c	-0.07175097
5	0x3e70784f	0.23483394
6	0x3cab7f04	0.02093459
7	0x3e9ad475	0.30240217
8	0x3c468edf	0.012119024
9	0xbb78d9c2	-0.003797159
10	0x3d4bbeb0	0.0497424
11	0x3ead2101	0.33814242
12	0x3d011fdb	0.03152452
13	0x3e7fe013	0.24987821
14	0x3ea61657	0.3243892
15	0xbcabd5cd	-0.020975972
16	0x3e90f2d5	0.28310266
17	0x3eaa4707	0.33257315
18	0x3dc44538	0.09583515
19	0x3ea2f9ad	0.31831113
20	0x3d043cb0	0.03228444
21	0x3eaf0887	0.34186193
22	0x3bd04784	0.0063561816
23	0x3e762f2e	0.24041435
24	0x3d172275	0.036898095
25	0x3d6d26bb	0.057898264
26	0x3d182153	0.037141155
27	0x3ea9d8bf	0.33173177
28	0x3ea07df2	0.3134609
29	0x3ea6cd09	0.32578304
30	0xbbbba607	-0.005726579
31	0x3e9b1d70	0.30295897
32	0xbdaf6fda	-0.08566256
33	0xbd6a6fc6	-0.0572355
34	0x3e936542	0.2878819
35	0xbd5e52b5	-0.054278094
36	0xbd9661b9	-0.07342858
37	0x3e9161e3	0.28394994
38	0x3e80fef0	0.25194502
39	0x3b33bda6	0.0027426272
40	0x3cf078a5	0.029354403
41	0x3df7f7ba	0.12107797
42	0x3e92fd97	0.287091
43	0x3d1afa8e	0.037836604
44	0x3da71d84	0.081599265
45	0x3eacce9f	0.3375139
46	0x3e84584a	0.2584861
47	0xbd000524	-0.031254902
48	0x3e9c4e70	0.30528593
49	0xbc07e681	-0.0082947025
50	0x3c31b280	0.01084578
51	0x3dbee650	0.093212724
52	0x3ea96f13	0.33092555
53	0x3e8e62a5	0.27809635
54	0x3eb67098	0.35632777
55	0xbd99638f	-0.074896924
56	0x3ea6a46b	0.32547316
57	0x3e9ede44	0.3102895
58	0x3e9769cc	0.29572904
59	0x3da2887c	0.079361886
60	0x3ddb92b5	0.107213415
61	0x3eaa8e66	0.33311766
62	0x3e96a9ba	0.29426366
63	0x3ea81069	0.3282502

model.1.shortcut.weight f4 [64, 128]
0	0x3bda2740	0.006657511
1	0xbdb2e838	-0.087356985
2	0xbe212f8a	-0.15740791
3	0xbd12f9b6	-0.035882674
4	0xbe1b2319	-0.15150107
5	0xbc4d3196	-0.012524029
6	0xbe1278ff	-0.14303969
7	0xbe0ac2d5	-0.13550885
8	0xbe1b0366	-0.15138015
9	0xbe39c274	-0.18140584
10	0xbe64d3e4	-0.22346455
11	0xbddf94f4	-0.109170824
12	0xbe3fcda6	-0.18730792
13	0xbe281786	-0.16415223
14	0xbe19db63	-0.15025096
15	0xbd2f157b	-0.042745095
16	0xbda7fd29	-0.08202583
17	0xbd7c8c57	-0.061657276
18	0xbdf5e693	-0.12006869
19	0xbdfdb45d	-0.12387917
20	0xbe359ac8	-0.17734826
21	0xbe1c5543	-0.152669
22	0xbe26d521	-0.1629224
23	0xbdb0a02b	-0.086242996
24	0xbe2bc300	-0.16773605
25	0x3d84df91	0.064879544
26	0xbe159d49	-0.14610781
27	0xbd0a1e27	-0.03372016
28	0xbe38c154	-0.18042499
29	0xbe16dc9f	-0.14732598
30	0xbe4fa311	-0.20277049
31	0xbe2d1d5f	-0.16905735
32	0xbe37b5b3	-0.17940407
33	0xbd248d71	-0.04017395
34	0xbe256156	-0.16150412
35	0xbd386359	-0.04501662
36	0xbda01850	-0.07817137
37	0xbdc557a3	-0.09635856
38	0xbdad7e9b	-0.08471414
39	0xbdec309a	-0.115327075
40	0xbd754280	-0.059877872
41	0xbd8ad218	-0.067783535
42	0xbe341082	-0.17584422
43	0xbe5cbbfd	-0.21556087
44	0xbc64479c	-0.013933089
45	0xbdf5f1f7	-0.12009042
46	0xbd8009c3	-0.06251862
47	0xbddd3ef4	-0.10803023
48	0xbd8949ab	-0.06703504
49	0xbd92dfee	-0.071716174
50	0xbe51f576	-0.20503792
51	0xbe33ed76	-0.17571053
52	0xbd8a8d0a	-0.06765182
53	0x3d0666f2	0.03281302
54	0xbe19ed28	-0.15031874
55	0xbe15dc06	-0.14634714
56	0xbb5fc806	-0.0034146323
57	0xbe049288	-0.12946522
58	0xbdde79a9	-0.108630486
59	0xbe3a1aec	-0.18174332
60	0x3d57c154	0.052674606
61	0xbe029010	-0.12750268
62	0xbe290783	-0.16506772
63	0xbe07102f	-0.13189767
64	0xbe5fec6a	-0.21867529
65	0xbe0dded9	-0.13854541
66	0xbe4427cb	-0.19155805
67	0xbd396ab6	-0.045267783
68	0xbd8189eb	-0.06325134
69	0xbd7e9ca2	-0.062161095
70	0xbdf1aaf9	-0.118001886
71	0xbdcde4a8	-0.10053378
72	0xbe4d44f3	-0.20045833
73	0xbe2d38b2	-0.16916159
74	0xbe17d2c2	-0.14826491
75	0xbe002e2d	-0.12517615
76	0xbd8e19c5	-0.06938509
77	0xbe1023e2	-0.14076188
78	0xbcccab93	-0.024984157
79	0xbe5963da	-0.21229497
80	0xbd3473f2	-0.044055887
81	0x3c059802	0.008153917
82	0xbddb51ad	-0.10708938
83	0xbdd1fc3d	-0.10253189
84	0x3d399cce	0.045315556
85	0xbd045057	-0.03230318
86	0xbd07c0e4	-0.03314294
87	0xbe17a7a6	-0.14810047
88	0xbdc8ee72	-0.09811105
89	0xbdc592fb	-0.09647175
90	0x3c9cb852	0.01913086
91	0x3c6b2008	0.014350899
92	0xbdc0d952	-0.094164506
93	0xbe4b737d	-0.19868274
94	0xbd9462b7	-0.07245391
95	0xbd2404c0	-0.040043592
96	0xbe1457ee	-0.14486668
97	0xbe2d2c67	-0.1691147
98	0xbcf28951	-0.029606493
99	0x3cb49cfc	0.022047512
100	0xbd6bb5b2	-0.057546325
101	0x3cd95fa2	0.02653486
102	0x3c2a27a0	0.010385424
103	0xbd85bb33	-0.06529846
104	0xbe46dbef	-0.19419836
105	0xbe86f648	-0.26359773
106	0xbe19ba13	-0.15012388
107	0xbd7adb44	-0.061244264
108	0xbd8f1a56	-0.06987445
109	0xbe09e1a6	-0.13464984
110	0xbdfb88a0	-0.122819185
111	0xbd99ea5c	-0.07515404
112	0x3d539963	0.051659953
113	0xbd80dac7	-0.062917285
114	0xbe0cc3ff	-0.13746642
115	0xbdb22635	-0.08698694
116	0xbdbd6b69	-0.092490025
117	0xbddc0ab3	-0.10744228
118	0xbdba6e62	-0.09103085
119	0xbe223f25	-0.158444
120	0xbe562be8	-0.20915186
121	0xbd483782	-0.04888106
122	0xbdf785f3	-0.12086096
123	0x3a75e102	0.0009379537
124	0xbe5087f1	-0.20364358
125	0xbe6e559a	-0.23274842
126	0xbe2d080a	-0.16897598
127	0xbe0952fd	-0.13410564
128	0xbdfb5500	-0.12272072
129	0xbe43dbca	-0.19126812
130	0xbe039a0e	-0.12851736
131	0x3d2ed5b0	0.042684257
132	0xbe06362a	-0.131066
133	0xbded0bac	-0.11574492
134	0xbe6938b8	-0.22775543
135	0xbe23f9ba	-0.16013232
136	0xbe85f0e2	-0.26160342
137	0xbe25ef7f	-0.16204642
138	0xbe46f7e7	-0.19430505
139	0xbde99f4e	-0.11407338
140	0xbe4c2c95	-0.19938882
141	0xbe5ff539	-0.21870889
142	0xbe18acf6	-0.1490973
143	0xbdc2b781	-0.09507657
144	0xbe19a182	-0.15003017
145	0xbd1b3942	-0.037896402
146	0xbe41fe8c	-0.18944758
147	0xbdcfe8d4	-0.1015183
148	0xbe2a09cb	-0.16605298
149	0xbe0180a9	-0.12646736
150	0xbdaa570c	-0.08317384
151	0xbd9a614c	-0.07538089
152	0xbe5df8ac	-0.21676892
153	0xbdbf5edc	-0.09344265
154	0xbde2aa5e	-0.11067651
155	0x3ce0ad00	0.027426243
156	0xbdcabe1b	-0.09899541
157	0xbe38af25	-0.18035562
158	0xbdb25765	-0.087080754
159	0xbde553ed	-0.11197648
160	0xbe07bcc7	-0.13255607
161	0xbdf9b6dc	-0.12193081
162	0xbdd487b2	-0.10377444
163	0xbe07e5ca	-0.13271251
164	0xbdf0c542	-0.11756374
165	0xbde93275	-0.11386577
166	0xbe2086a5	-0.15676363
167	0xbe28abcc	-0.16471785
168	0xbe4d0259	-0.20020427
169	0xbdb88a88	-0.09010798
170	0xbe50936e	-0.2036874
171	0xbe114bb8	-0.1418904
172	0x3cbe16ab	0.023204168
173	0xbe2fb59d	-0.17159124
174	0xbd96c134	-0.07361069
175	0xbe65638a	-0.22401252
176	0xbdcf5760	-0.10124087
177	0xbe267875	-0.16256888
178	0xbe3d8adb	-0.1851
179	0xbdf6352e	-0.12021862
180	0xbe241e23	-0.16027121
181	0xbde9300d	-0.11386118
182	0xbe71baae	-0.23606369
183	0xbe3d0827	-0.18460141
184	0x3c873dc5	0.016508946
185	0xbe5095ee	-0.20369694
186	0xbd86eab8	-0.06587738
187	0xbe6112a4	-0.21979767
188	0xbcbf2413	-0.023332631
189	0xbe02c08c	-0.12768763
190	0xbde2a540	-0.11066675
191	0xbe14c2f4	-0.14527494
192	0xbdfc0ab4	-0.12306729
193	0xbd839484	-0.064248115
194	0xbe40d294	-0.18830329
195	0xbcfb5904	-0.030682094
196	0xbda7f244	-0.082005054
197	0xbe4d91e2	-0.20075181
198	0xbe80646f	-0.25076625
199	0xbd38df6d	-0.04513495
200	0xbe238acc	-0.15970916
201	0xbe5ac027	-0.21362363
202	0xbdce1920	-0.10063386
203	0xbe57a93d	-0.21060653
204	0xbe271da8	-0.16319907
205	0xbe2594f5	-0.16170104
206	0xbdc5173e	-0.09623574
207	0xbe567567	-0.20943223
208	0xbe5e6d00	-0.21721268
209	0xbd545b09	-0.05184463
210	0xbe262520	-0.162251
211	0xbe0ce332	-0.13758543
212	0xbd1fa0d0	-0.038971722
213	0xbdb11bf7	-0.08647912
214	0xbd1286c3	-0.03577305
215	0xbd948909	-0.072527
216	0xbe18b4f3	-0.14912777
217	0xbd31b759	-0.043387745
218	0xbd8a401f	-0.067505114
219	0x3d1c5698	0.03816852
220	0xbdd6b0ab	-0.104829155
221	0xbe1cd8eb	-0.15317123
222	0xbda4a46b	-0.08039173
223	0xbdf2cf4a	-0.118559435
224	0xbdcae902	-0.09907724
225	0xbcf99d3b	-0.030470481
226	0xbced5399	-0.028970527
227	0xbd98037d	-0.0742254
228	0xbe1bf230	-0.15229106
229	0xbd88c4f6	-0.06678192
230	0xbd887566	-0.06663017
231	0xbcd7a5c2	-0.026324157
232	0xbe6e96f8	-0.23299778
233	0xbe68b414	-0.22724944
234	0xbe2e3ead	-0.17016096
235	0xbd01e52c	-0.031712696
236	0xbdbaefb7	-0.09127753
237	0xbe169b8e	-0.14707777
238	0xbdf9b29c	-0.1219227
239	0xbe0452ef	-0.12922262
240	0x3d02b15b	0.03190742
241	0x3ccbfa7c	0.024899714
242	0xbe420ebc	-0.18950933
243	0x3cf4a028	0.029861525
244	0xbcca5fac	-0.024703823
245	0xbda3813b	-0.07983633
246	0xbe81a4ff	-0.25321195
247	0xbe46cf89	-0.19415106
248	0xbe1c243d	-0.15248199
249	0xbd589f42	-0.052886255
250	0xbdf8b06e	-0.12143026
251	0xbd80977e	-0.06278895
252	0xbe1f73b8	-0.15571487
253	0xbdbf558f	-0.09342491
254	0xbdd316a6	-0.10307054
255	0xbdc49b2c	-0.09599909

model.1.shortcut.bias f4 [64]
0	0xbed84a1a	-0.42244035
1	0xbe9927bc	-0.29913127
2	0x3e9a3681	0.30119708
3	0x3e53d09b	0.20685045
4	0xbe85daf5	-0.26143613
5	0x3e7c935f	0.24665593
6	0xbe4d87dd	-0.20071359
7	0x3e96a697	0.29423973
8	0xbea96724	-0.33086503
9	0xbe91d32a	-0.28481418
10	0xbec0e239	-0.37672594
11	0x3e92392b	0.2855924
12	0xbeb81d84	-0.3596002
13	0x3e670016	0.22558627
14	0x3eb5f553	0.3553873
15	0xbe7a6a05	-0.24454506
16	0x3e875d40	0.26438332
17	0x3e651374	0.22370702
18	0x3ed1570a	0.40886718
19	0x3eb91a7d	0.3615302
20	0xbe960960	-0.29304028
21	0x3eb9f18d	0.363171
22	0xbe873e8c	-0.26414907
23	0x3ed56b1e	0.41683286
24	0xbefeee72	-0.49791294
25	0xbeb6ccd0	-0.35703135
26	0xbe85bdec	-0.2612146
27	0x3ea34fcf	0.31896827
28	0x3e79b5ba	0.2438573
29	0x3e6ef7e2	0.23336747
30	0xbe99c2f3	-0.30031547
31	0x3e92e826	0.2869274
32	0xbea19157	-0.31556198
33	0xbe942435	-0.28933874
34	0x3e41fe73	0.18944721
35	0xbe885983	-0.26630792
36	0xbec7d145	-0.39026847
37	0x3e89721f	0.2684488
38	0x3ec12467	0.37723085
39	0xbeb6e3aa	-0.3572057
40	0xbeb8e0df	-0.36109063
41	0x3eb64a5b	0.35603604
42	0x3e7ef553	0.24898271
43	0xbeaa0bc0	-0.3321209
44	0xbec1946e	-0.37808555
45	0x3eb30941	0.34967998
46	0x3eb4cc7a	0.35312253
47	0xbe888e8f	-0.26671264
48	0x3e892771	0.26787904
49	0xbe77881e	-0.24173018
50	0xbea5e3bd	-0.32400313
51	0x3ebc6c5f	0.3680143
52	0x3e9fb7ae	0.31194824
53	0x3ec15eb1	0.37767556
54	0x3e8431a4	0.25819123
55	0xbea8a9d1	-0.3294206
56	0x3ea233b1	0.31680062
57	0x3e83b54c	0.25724256
58	0x3ea1bb37	0.31588146
59	0x3e99d52c	0.3004545
60	0x3e96101f	0.29309174
61	0x3e6bdc82	0.23033336
62	0x3e72f449	0.23726
63	0x3e948c0b	0.29013094

model.2.weight f4 [1, 64]
0	0xbe38731b	-0.18012659
1	0xbe2b3ac0	-0.1672163
2	0x3e80f1cb	0.25184473
3	0x3e8ed361	0.27895644
4	0xbe8217ef	-0.25408885
5	0x3e4bc57b	0.19899552
6	0xbe8590d3	-0.26087055
7	0x3e9553b5	0.29165426
8	0xbe306df5	-0.17229445
9	0xbe2d3213	-0.16913633
10	0xbe387f41	-0.18017294
11	0x3e81f6cb	0.253836
12	0xbe556c8f	-0.20842193
13	0x3e51974d	0.20467873
14	0x3e8063a9	0.25076035
15	0xbe704bb7	-0.23466383
16	0x3e56be38	0.20971
17	0x3e84056b	0.25785384
18	0x3e3b7048	0.1830455
19	0x3e865ebf	0.2624416
20	0xbe69e436	-0.22840962
21	0x3e91f3b0	0.2850623
22	0xbe37a993	-0.17935781
23	0x3e493891	0.19650485
24	0xbe13ecba	-0.14445773
25	0xbe2e54ce	-0.17024538
26	0xbe550255	-0.20801671
27	0x3e8c85c7	0.27445814
28	0x3e912843	0.2835103
29	0x3e86c1f2	0.26319844
30	0xbe651f4e	-0.22375223
31	0x3e909441	0.2823811
32	0xbe32d4e2	-0.17464021
33	0xbe762a55	-0.24039586
34	0x3e8db219	0.2767494
35	0xbe7a71a1	-0.24457408
36	0xbe4b9084	-0.19879347
37	0x3e98127a	0.29701596
38	0x3e40dd89	0.18834509
39	0xbe38a74a	-0.18032566
40	0xbe81ba51	-0.2533746
41	0x3e3293e9	0.17439236
42	0x3e550913	0.20804243
43	0xbe4e0467	-0.20118867
44	0xbe395554	-0.18098956
45	0x3e93fb92	0.2890287
46	0x3e4b8df6	0.19878373
47	0xbe5db909	-0.21652617
48	0x3e87b524	0.26505387
49	0xbe6dba58	-0.23215616
50	0xbe80eff2	-0.25183064
51	0x3e3bc2b0	0.18335986
52	0x3e867f1b	0.2626885
53	0x3e5e6f73	0.21722202
54	0x3e52cb0d	0.2058527
55	0xbe89f6a5	-0.26945987
56	0x3e81e5cf	0.25370643
57	0x3e96a965	0.29426113
58	0x3e865d9a	0.26243287
59	0x3e27dbc8	0.16392434
60	0x3e31e823	0.1737371
61	0x3e739372	0.23786715
62	0x3e838919	0.25690535
63	0x3e85ce98	0.2613418
